music_genre_cnn.pth (torch, 784744 bytes, 10 tensors)

layer1.0.weight f4 [512, 42]
0.14125596 0.20653515 0.16022554 0.115830064 -0.03894604 -0.17986186 0.09260351 -0.06192523
0.04569958 -0.21628277 -0.24918136 -0.11259472 -0.14202014 -0.016294265 0.014428582 0.087857485
0.08004696 0.07552645 0.06319143 -0.21400885 0.097653404 -0.07938167 0.008116061 0.115539886
0.143763 -0.097450055 0.1381879 0.13977084 0.07932291 0.025937164 0.074325025 0.07182393
-0.13020039 0.10845176 -0.13039196 -0.040964972 -0.009158274 0.16829124 -0.10455567 -0.039764374
-0.12219183 0.035213813 -0.09266344 0.27937192 -0.07465435 0.062409803 -0.10118782 0.075576365
0.0069563454 0.09111642 -0.22094445 -0.11331584 0.098851 0.050955076 0.029772377 0.10973928
-0.15560701 0.05479795 -0.10818324 -0.1033027 -0.26034948 0.23308614 0.083115734 -0.043439794
0.19335379 -0.2296314 0.028165571 -0.11319886 0.081347115 0.056867015 0.027606845 0.16900438
-0.04449595 0.15491495 0.094063886 -0.113180526 0.010076318 -0.08123865 0.08333713 0.20423162
-0.19894694 0.020108802 0.02152155 0.20663615 -0.1497996 -0.23182602 -0.21125458 -0.06347253
-0.042171825 -0.16906023 -0.011123648 0.06845537 -0.15350403 -0.057136677 0.019102046 0.025219461
0.087211154 0.0700289 -0.034509145 0.1662775 -0.0654534 -0.22283895 -0.07619848 -0.0732042
0.046854954 0.075499244 -0.11281687 0.06343283 -0.19896516 -0.004675327 0.0504232 0.07542447
0.2233697 0.08464892 0.12126206 -0.07399582 -0.22043389 -0.08477511 0.064660676 -0.034083616
-0.15652478 -0.018133434 0.018739266 0.08974921 0.05779296 0.026191814 0.08815008 -0.1832421
-0.028729321 -0.5057679 0.21848695 -0.09054511 -0.1416332 0.18602969 0.030774094 0.028465427
-0.06793069 0.03144784 0.018971378 -0.0054496657 -0.034451526 -0.044454414 -0.04752807 0.119769655
0.04927028 -0.118829854 0.09509698 -0.034954052 0.04447556 0.06012764 -0.026561385 0.0004215643
0.05247237 -0.059517752 -0.027671289 -0.058454465 0.059395865 -0.05487276 -0.06743273 -0.13381426
0.06804128 -0.11115273 0.031767022 -0.15259074 0.21231689 -0.22555712 -0.25394827 -0.0833648
-0.36101887 -0.10829465 -0.06813253 0.14129858 -0.15353929 -0.036527354 0.13463274 -0.026317928
0.0032274437 0.20409077 0.036127415 -0.08756926 0.18892281 0.13133202 -0.19839345 -0.06747402
0.34823334 -0.22202945 -0.0860747 -0.023546753 -0.12078399 -0.012075776 0.019774156 0.052915692
-0.00877688 -0.083399236 0.006628988 0.04395544 0.05939992 -0.1671992 0.14930554 -0.07853065
-0.13536823 0.094229795 -0.080209576 0.12913042 -0.098681904 0.0083409 -0.107219994 -0.06299606
-0.06705835 0.03442398 -0.010034663 -0.16648287 -0.13301808 -0.13933192 -0.031861555 -0.044107478
0.18603985 0.262305 -0.002924213 -0.08186222 0.09631501 0.23831424 0.11501403 0.058804337
-0.17928258 0.0702966 -0.14853293 0.07155162 0.047202535 -0.10554152 -0.07583786 -0.22794212
-0.015754728 -0.04839669 -0.036341436 0.06573014 -0.036165975 -0.0225705 0.117147245 -0.038296234
-0.08169649 -0.09188601 0.03778092 -0.0033260498 0.025311965 -0.049563184 -0.0069308137 0.14949125
-0.14663471 0.11873913 0.062243205 -0.25632334 0.32734764 0.038653266 0.18282762 0.30145416
00000000: 67a5 103e f37d 533e 2a12 243e 5038 ed3d
00000010: e285 1fbd b52d 38be e9a6 bd3d 4fa5 7dbd
00000020: 7c2f 3b3d 3b79 5dbe 6629 7fbe 1098 e6bd
00000030: ba6d 11be 8d7b 85bc dc65 6c3c a0ee b33d
00000040: a9ef a33d 9dad 9a3d 826a 813d 2325 5bbe
00000050: 82fe c73d db92 a2bd 3af9 043c 2da0 ec3d
00000060: 9c36 133e e593 c7bd 2181 0d3e 1620 0f3e
00000070: 0d74 a23d 2d7a d43c b837 983d 6d18 933d
00000080: 4053 05be f51b de3d 7885 05be e3ca 27bd
00000090: 960c 16bc 8a54 2c3e 4821 d6bd f8df 22bd
000000a0: b63f fabd 5c3c 103d 54c6 bdbd d609 8f3e
000000b0: 61e4 98bd 6ca1 7f3d 8f3b cfbd c8c7 9a3d
000000c0: 0ef2 e33b 3f9b ba3d 433f 62be 2312 e8bd
000000d0: 6572 ca3d 45b6 503d 33e5 f33c fdbe e03d
000000e0: 7257 1fbe d173 603d 2d8f ddbd 5e90 d3bd
000000f0: 874c 85be 22ae 6e3e 9538 aa3d eded 31bd
00000100: 89fe 453e 7e24 6bbe 7cbb e63c ced4 e7bd
00000110: 5199 a63d 63ed 683d c027 e23c 7c0f 2d3e
00000120: 6341 36bd 06a2 1e3e 91a4 c03d 31cb e7bd
00000130: 2417 253c 7360 a6bd a8ac aa3d 1822 513e
00000140: bfb8 4bbe 37bb a43c f64d b03c 6d98 533e
00000150: 1165 19be cd63 6dbe 1f53 58be e3fd 81bd
00000160: 5dbc 2cbd 201e 2dbe f63f 36bc 5432 8c3d
00000170: 2930 1dbe 2608 6abd e57b 9c3c 0b99 ce3c
00000180: c39b b23d 506b 8f3d 7659 0dbd a644 2a3e
00000190: 6f0c 86bd e52f 64be f30d 9cbd 15ec 95bd
000001a0: fbea 3f3d 599f 9a3d 880c e7bd 12e9 813d
000001b0: 86bd 4bbe 7c33 99bb 8f88 4e3d 2578 9a3d
000001c0: 07bb 643e 6a5c ad3d 3e58 f83d 1f8b 97bd
000001d0: 6cb9 61be 939e adbd d16c 843d 439b 0bbd
000001e0: 0848 20be 918c 94bc 1783 993c 6fce b73d
000001f0: 50b8 6c3d 3790 d63c 0788 b43d d1a3 3bbe
00000200: c159 ebbc 017a 01bf 0bbb 5f3e b76f b9bd
00000210: 4b08 11be 917e 3e3e f419 fc3c 5430 e93c
00000220: 3f1f 8bbd 73cf 003d dd69 9b3c 1c93 b2bb
00000230: 0b1d 0dbd d515 36bd cbac 42bd cb49 f53d
00000240: a2cf 493d 115d f3bd 35c2 c23d fb2b 0fbd
00000250: 012c 363d 6648 763d 4397 d9bc 6705 dd39
00000260: 45ed 563d e3c8 73bd e6ae e2bc f36d 6fbd
00000270: 1449 733d 42c2 60bd 2c1a 8abd 9b06 09be
00000280: 3a59 8b3d 0ba4 e3bd 231e 023d bf40 1cbe
00000290: 9969 593e 72f8 66be 8205 82be 2abb aabd
000002a0: 77d7 b8be 96c9 ddbd 1189 8bbd 93b0 103e
000002b0: 6739 1dbe b59d 15bd 2add 093e b298 d7bc
000002c0: 8583 533b 2cfd 503e 57fa 133d 8357 b3bd
000002d0: fb74 413e e77b 063e a727 4bbe d22f 8abd
000002e0: a44b b23e b05b 63be ef47 b0bd 1fe5 c0bc
000002f0: 995d f7bd 7ad9 45bc 69fd a13c 20be 583d
00000300: e7cc 0fbc 38cd aabd fb37 d93b 9f0a 343d
00000310: 554d 733d 4436 2bbe 8de3 183e add4 a0bd
00000320: f89d 0abe 8dfb c03d eb44 a4bd c43a 043e
00000330: bd19 cabd 45a8 083c 2896 dbbd 1404 81bd
00000340: e355 89bd 2900 0d3d 6d68 24bc 7c7a 2abe
00000350: e435 08be 07ad 0ebe 4381 02bd 0baa 34bd
00000360: 3b81 3e3e d74c 863e 27a4 3fbb 61a7 a7bd
00000370: ce40 c53d a608 743e 7a8c eb3d d1dc 703d
00000380: da95 37be aaf7 8f3d 0419 18be a889 923d
00000390: 7257 413d 2726 d8bd e150 9bbd a969 69be
000003a0: 0f10 81bc 9c3b 46bd c2da 14bd 869d 863d
000003b0: c622 14bd c5e5 b8bc e5ea ef3d 83dc 1cbd
000003c0: 7d50 a7bd bb2e bcbd 2ac0 1a3d dbf9 59bb
000003d0: 0a5b cf3c c402 4bbd e11b e3bb 3c14 193e
000003e0: 6927 16be 802d f33d bbf2 7e3d d03c 83be
000003f0: 1c9a a73e e352 1e3d 2a37 3b3e 3358 9a3e

layer1.0.bias f4 [512]
-0.22080629 -0.21586688 -0.2515228 -0.0918606 -0.21514973 -0.043094397 -0.084223114 0.00061376573
0.03446771 -0.2374638 -0.222335 -0.29604036 -0.13361968 -0.38780066 -0.16787536 0.08398046
-0.046714302 0.0372909 -0.30586264 -0.35860014 -0.3241742 -0.36044124 -0.17336442 -0.12040889
-0.22348155 -0.19758755 -0.01670803 -0.08298119 -0.022252506 -0.3259931 -0.07591428 -0.1295715
-0.16087684 -0.08165518 -0.11760005 -0.16673265 -0.08299017 -0.22976324 -0.37174296 -0.16232702
-0.16711427 -0.33846724 -0.21863377 -0.2701836 -0.38694292 -0.27084285 -0.1614826 -0.12716882
-0.33966312 -0.24948929 -0.24365817 -0.30427796 -0.2436237 -0.07311834 -0.14083713 -0.10652667
-0.21295771 -0.30041203 -0.21001588 0.0013344684 -0.237513 -0.14871399 -0.08930377 -0.35949618
-0.07578774 -0.19840764 -0.023324393 -0.4061678 -0.33218622 -0.32563037 -0.04962878 -0.15340285
-0.14907895 -0.21023363 -0.25390598 -0.11136467 -0.30278376 -0.12117291 -0.06743596 -0.196459
-0.12183681 -0.18688497 -0.10822695 -0.201835 -0.29405093 -0.08838634 -0.27966744 -0.32455897
-0.21256629 -0.15477528 -0.24799973 0.013854446 -0.14708884 -0.18909666 -0.2612683 -0.16106765
-0.0569193 -0.15276664 -0.17782933 -0.1764131 -0.17094307 -0.13148189 -0.095559575 -0.23570317
-0.39922234 -0.11130701 -0.36169338 -0.0321582 -0.40452492 -0.034103293 -0.16885662 -0.39514473
-0.23595552 -0.23232183 -0.2916581 -0.3162868 -0.34583285 -0.37836602 -0.30625618 -0.31971464
-0.26618552 -0.34228307 -0.053314354 -0.18353155 -0.19059433 -0.28433996 -0.34525177 -0.341077
-0.23609357 -0.17191868 0.036045745 -0.15389284 -0.2586572 -0.17139778 -0.24154687 -0.34321356
0.007233045 -0.27868843 -0.47266373 -0.31823856 -0.2116964 -0.12430091 -0.35135865 -0.34039566
-0.052238263 -0.23886801 -0.20403321 -0.20570377 -0.12648565 -0.19050074 -0.074825786 -0.21362984
-0.31771326 -0.032865975 -0.1582393 0.05648395 -0.34139425 -0.25724354 0.014371929 -0.24101804
-0.107639074 -0.28047302 -0.09260514 -0.07368989 -0.049921796 -0.052820265 -0.29849643 -0.087867394
-0.16809595 -0.108285956 -0.3105278 -0.25066385 -0.089762814 -0.1984226 -0.13920653 -0.21700256
0.009525382 -0.14718789 -0.24861775 -0.25847456 -0.19194011 -0.22200762 -0.038705632 -0.3228312
-0.17814733 -0.20225824 -0.20007746 -0.33354098 -0.22015832 -0.2605979 -0.15078531 -0.42361823
-0.40606663 -0.20355193 -0.26924175 -0.30399856 -0.080312304 -0.3319886 -0.15275307 -0.25514343
-0.18385875 -0.10114627 -0.07063248 -0.26820868 -0.22746272 -0.23351443 -0.24445716 -0.03337214
-0.1853759 -0.4107204 -0.22056176 -0.2974687 0.023707392 -0.26383322 -0.21412851 -0.2356332
-0.13623156 -0.25840908 -0.22387317 -0.12232973 -0.13711648 -0.06692226 -0.18627298 -0.052082613
-0.14877845 -0.17582585 -0.14394678 -0.27713558 -0.3089632 -0.14545718 -0.2782762 -0.16396408
-0.2931134 -0.14690132 -0.14378382 -0.043467294 -0.13314039 -0.114557594 -0.35601673 -0.25941432
-0.14963794 -0.23300005 -0.2193605 -0.37788934 -0.11419761 -0.31833848 -0.38162327 -0.3905473
-0.17089517 -0.13694446 -0.18284212 -0.15038073 -0.021364685 -0.04962954 -0.074055135 -0.13860433
00000000: 0b1b 62be 350c 5dbe 99c7 80be 6921 bcbd
00000010: 3650 5cbe c083 30bd 2b7d acbd 1fe5 203a
00000020: 032e 0d3d b629 73be c9ab 63be 9a92 97be
00000030: 99d3 08be cf8d c6be 85e7 2bbe f3fd ab3d
00000040: 7f57 3fbd 58be 183d 079a 9cbe 709a b7be
00000050: 29fa a5be c18b b8be 7186 31be f098 f6bd
00000060: 59d8 64be 6454 4abe 47df 88bc 0bf2 a9bd
00000070: e34a b6bc 91e8 a6be f278 9bbd 64ae 04be
00000080: e6bc 24be d53a a7bd 4cd8 f0bd f7bb 2abe
00000090: c0f6 a9bd 0e47 6bbe 1855 bebe 0e39 26be
000000a0: 0120 2bbe 944b adbe 88e1 5fbe 8155 8abe
000000b0: 621d c6be eaab 8abe b25b 25be 8b38 02be
000000c0: 53e8 adbe 1f7a 7fbe 8781 79be 52ca 9bbe
000000d0: 7e78 79be 11bf 95bd 9c37 10be a82a dabd
000000e0: 9611 5abe 9bcf 99be 670e 57be 54e9 ae3a
000000f0: 9c36 73be 7b48 18be e5e4 b6bd e20f b8be
00000100: 9a36 9bbd 5f2b 4bbe cc12 bfbc 3af5 cfbe
00000110: 5014 aabe 06b9 a6be 8c47 4bbd a315 1dbe
00000120: 27a8 18be 7c47 57be f7ff 81be 2913 e4bd
00000130: 7906 9bbe 8129 f8bd dd1b 8abd 8c2c 49be
00000140: 9485 f9bd c65e 3fbe 17a6 ddbd d6ad 4ebe
00000150: d88d 96be e603 b5bd 9230 8fbe 982c a6be
00000160: faaa 59be 697d 1ebe a4f3 7dbe c2fd 623c
00000170: 759e 16be 8ea2 41be f5c4 85be ebee 24be
00000180: 3624 69bd dc6e 1cbe e418 36be a3a5 34be
00000190: b30b 2fbe 30a3 06be bdb4 c3bd 2c5c 71be
000001a0: df66 ccbe eef4 e3bd e02f b9be 51b8 03bd
000001b0: e41d cfbe e5af 0bbd c0e8 2cbe 6950 cabe
000001c0: 539e 71be c6e5 6dbe 3654 95be 58f0 a1be
000001d0: 0111 b1be 31b9 c1be 9ccd 9cbe a3b1 a3be
000001e0: 7849 88be ba3f afbe 2760 5abd b2ef 3bbe
000001f0: 292b 43be 0295 91be d7c4 b0be a5a1 aebe
00000200: 83c2 71be 730b 30be b4a4 133d 1696 1dbe
00000210: b76e 84be e682 2fbe 1058 77be b0b9 afbe
00000220: 2e03 ed3b 40b0 8ebe fb00 f2be 2af0 a2be
00000230: f1c6 58be 7a91 febd 48e5 b3be 5748 aebe
00000240: caf7 55bd d199 74be 15ee 50be 02a4 52be
00000250: 7485 01be a012 43be 433e 99bd c8c1 5abe
00000260: 50ab a2be 799e 06bd 7c09 22be b75b 673d
00000270: 3acb aebe 6db5 83be 3d78 6b3c 6fcd 76be
00000280: e071 dcbd 299a 8fbe c3a7 bdbd baea 96bd
00000290: cc7a 4cbd 105a 58bd 86d4 98be d2f3 b3bd
000002a0: 5821 2cbe 07c5 ddbd 80fd 9ebe 0357 80be
000002b0: 91d5 b7bd 4b2f 4bbe 288c 0ebe eb35 5ebe
000002c0: 5910 1c3c 6cb8 16be a795 7ebe c756 84be
000002d0: f38b 44be f755 63be cc89 1ebd 224a a5be
000002e0: 416c 36be c91c 4fbe 1be1 4cbe e2c5 aabe
000002f0: 2f71 61be 176d 85be 7767 1abe 7de4 d8be
00000300: f7e7 cfbe eb6f 50be 0eda 89be b3a5 9bbe
00000310: c77a a4bd 69fa a9be 4d6b 1cbe 29a2 82be
00000320: 7845 3cbe c725 cfbd c3a7 90bd a652 89be
00000330: fdeb 68be 681e 6fbe fa52 7abe 3ab1 08bd
00000340: 2ed3 3dbe f249 d2be f1da 61be d14d 98be
00000350: 0136 c23c 2615 87be 8144 5bbe d449 71be
00000360: 4980 0bbe 324e 84be 023f 65be 0288 fabd
00000370: 4368 0cbe 8a0e 89bd 58be 3ebe 9454 55bd
00000380: 6159 18be b10b 34be c966 13be b7e4 8dbe
00000390: 6d30 9ebe baf2 14be 387a 8ebe 33e6 27be
000003a0: f612 96be 4d6d 16be 113c 13be c30a 32bd
000003b0: f455 08be 2c9d eabd d347 b6be f4d1 84be
000003c0: b03a 19be 9197 6ebe 0aa0 60be b67a c1be
000003d0: 70e0 e9bd 43fd a2be 2064 c3be d1f5 c7be
000003e0: 25ff 2ebe 2b3b 0cbe f73a 3bbe 68fd 19be
000003f0: fe04 afbc 5848 4bbd 38aa 97bd 4bee 0dbe

layer2.0.weight f4 [256, 512]
-0.0003352514 0.00023221034 0.05545373 -0.11235263 -0.14875585 0.035323482 0.028200487 -0.076874346
0.03031671 -0.14256325 0.15987618 0.026893578 -0.13449478 -0.09533905 -0.013147265 0.027716361
-0.08062358 -0.039772913 0.05247433 -0.10334001 0.13977835 -0.035033297 0.15520495 -0.06900657
0.0078529455 0.028650058 -0.034201074 -0.034251638 0.038259163 0.17223623 0.15586151 -0.0073497393
-0.08106656 0.02166932 0.11805342 -0.025350919 0.11389624 -0.078970194 0.15443745 -0.044313245
0.08884316 -0.11992835 -0.04483182 -0.13407074 0.06268389 -0.03832759 0.041631483 0.049819846
0.12630375 0.048513878 -0.025435213 0.060405463 0.08576022 0.046131823 0.06082916 0.10428181
0.02939638 -0.02387878 0.046516303 0.00470923 -0.15199462 0.12700848 0.020166153 0.0023065927
-0.018023983 0.033784308 0.060647395 -0.20523418 -0.008576217 0.039687973 -0.05000633 -0.03388992
-0.38755345 0.15008642 -0.035538606 -0.04508678 -0.06518516 0.20148058 -0.12919758 -0.15142746
-0.06425268 -0.15177675 -0.05675006 -0.21121323 -0.02016926 0.100366145 -0.30978918 0.008103962
-0.03737642 0.03831436 -0.021826668 0.057991605 -0.05332538 0.093327045 0.12158002 0.03754341
-0.077436045 0.10146578 -0.18619926 -0.06362177 0.0076222178 -0.0073772436 0.14943288 -0.025634846
-0.05086504 -0.1019322 -0.029098505 -0.005666996 -0.06411626 0.10863386 -0.071318574 0.09583622
-0.106378056 -0.17407383 -0.03398663 0.102600865 -0.025602695 0.02945408 -0.027696941 0.03285397
0.033329424 -0.16199598 0.04018793 0.09296424 0.03281543 -0.0029776648 0.15161961 -0.041812155
-0.06705536 -0.15308797 0.048052177 -0.034937672 -0.18870719 0.19055267 0.023043681 0.18804926
0.092071004 -0.013327361 -0.19544652 0.11755857 -0.25282007 0.06754429 0.0051279236 0.022443788
0.090573266 -0.13272381 0.05967436 -0.015450896 0.011316724 0.06375702 0.024680894 -0.049977135
0.0104842335 0.07946571 -0.12365088 -0.026926322 0.058679618 0.05665253 -0.06424622 -0.27346689
0.15211222 -0.033397693 -0.024503296 -0.09882249 0.04615927 -0.08756341 0.060487755 -0.022456776
-0.084207356 0.02179259 0.0765475 -0.007236163 -0.0060746986 -0.057722524 -0.056360886 -0.04336846
0.04661217 -0.012557672 0.06252642 -0.02893026 0.17349622 0.0907315 -0.048602294 -0.020533703
-0.10521266 0.04937671 0.03355901 0.056000262 0.023422016 0.021051632 -0.057869513 0.06521929
-0.053805113 0.08561849 -0.061410025 -0.34392735 -0.08205886 0.03340355 0.025193574 -0.015804876
0.0574332 -0.09283561 -0.029633999 -0.030857347 -0.008012594 -0.033933938 0.108799845 -0.004157563
0.03618885 -0.08805834 -0.19152088 0.033957735 0.010866792 -0.014718189 -0.063271046 -0.007207208
-0.12204836 -0.05186083 -0.112182304 0.061921373 0.00096847664 -0.0065059513 0.040866356 -0.12993284
-0.1290222 0.01208891 -0.044857714 -0.09725787 0.07160253 0.07179289 -0.043911953 0.10348533
0.02556958 -0.06393779 0.07978691 -0.05242423 0.0621559 -0.0071999556 0.0149241835 -0.16337039
-0.031269733 0.086022094 0.043994613 -0.13941206 0.082790986 0.024143683 0.0720529 0.19135217
0.04089779 0.076585405 -0.10711128 0.061017755 0.12928772 -0.014122622 -0.00023522599 -0.078319386
00000000: aec4 afb9 7d7d 7339 7323 633d 2319 e6bd
00000010: 7453 18be 5baf 103d b504 e73c 4c70 9dbd
00000020: c05a f83c 1afc 11be 95b6 233e ec4f dc3c
00000030: 00b9 09be 1f41 c3bd a067 57bc 6c0d e33c
00000040: fa1d a5bd ece8 22bd 53ef 563d eda3 d3bd
00000050: 0e22 0f3e 137f 0fbd 0cee 1e3e 5153 8dbd
00000060: a4a9 003c 87b3 ea3c 6d16 0cbd 724b 0cbd
00000070: a4b5 1c3d b25e 303e 299a 1f3e 15d6 f0bb
00000080: 3906 a6bd dc83 b13c fec5 f13d bbac cfbc
00000090: 6f42 e93d 20bb a1bd da24 1e3e ce81 35bd
000000a0: 67f3 b53d ff9c f5bd 92a1 37bd d749 09be
000000b0: 6960 803d 64fd 1cbd c685 2a3d e50f 4c3d
000000c0: c555 013e 7db6 463d 825d d0bc b86b 773d
000000d0: 0ea3 af3d b9f4 3c3d ff27 793d b491 d53d
000000e0: add0 f03c 6e9d c3bc e187 3e3d e24f 9a3b
000000f0: 7aa4 1bbe 830e 023e 7d33 a53c 342a 173b
00000100: 08a7 93bc 6a61 0a3d 6769 783d e928 52be
00000110: 4383 0cbc db8f 223d 70d3 4cbd 28d0 0abd
00000120: 686d c6be 41b0 193e ee90 11bd eaac 38bd
00000130: cc7f 85bd ed50 4e3e 5f4c 04be cd0f 1bbe
00000140: e996 83bd 5d6b 1bbe c072 68bd 4848 58be
00000150: 013a a5bc c48c cd3d b09c 9ebe 7bc6 043c
00000160: 0418 19bd 85ef 1c3d d7cd b2bc 9b88 6d3d
00000170: b76b 5abd 4022 bf3d f2fe f83d 1ec7 193d
00000180: ca96 9ebd 4acd cf3d 05ab 3ebe 214c 82bd
00000190: ccc3 f93b cebc f1bb ef04 193e 2b00 d2bc
000001a0: dc57 50bd d4c1 d0bd fd5f eebc 35b2 b9bb
000001b0: 634f 83bd 6e7b de3d 790f 92bd c845 c43d
000001c0: bddc d9bd 6940 32be 9135 0bbd 6720 d23d
000001d0: bebc d1bc af49 f13c b2e4 e2bc e291 063d
000001e0: 6f84 083d 46e2 25be 199c 243d 0964 be3d
000001f0: 7969 063d ed24 43bb 2c42 1b3e 3943 2bbd
00000200: 5254 89bd 18c3 1cbe 5cd2 443d ce1a 0fbd
00000210: 753c 41be 3d20 433e 1ac6 bc3c fc8f 403e
00000220: b98f bc3d 015b 5abc 2223 48be 8cc2 f03d
00000230: a271 81be a954 8a3d 2408 a83b 09dc b73c
00000240: 7a7e b93d c0e8 07be 1a6d 743d c125 7dbc
00000250: c869 393c 0a93 823d 962f ca3c d3b4 4cbd
00000260: 10c6 2b3c ebbe a23d ac3c fdbd 9794 dcbc
00000270: 0a5a 703d 7c0c 683d 8693 83bd da03 8cbe
00000280: 4ec3 1b3e 05cc 08bd 23bb c8bc 7263 cabd
00000290: 8111 3d3d 7254 b3bd 02c2 773d 46f7 b7bc
000002a0: e874 acbd 6086 b23c f0c4 9c3d 561d edbb
000002b0: 440e c7bb 746e 6cbd acda 66bd 20a3 31bd
000002c0: 67ec 3e3d b2be 4dbc da0d 803d 27ff ecbc
000002d0: fea8 313e 70d1 b93d 3313 47bd 4c36 a8bc
000002e0: bc79 d7bd 3c3f 4a3d 2c75 093d 8860 653d
000002f0: 87df bf3c 7974 ac3c 9508 6dbd b191 853d
00000300: c062 5cbd bf58 af3d 1489 7bbd 3f17 b0be
00000310: 7a0e a8bd 29d2 083d c162 ce3c 3a79 81bc
00000320: 133f 6b3d 9920 bebd 00c3 f2bc 8cc8 fcbc
00000330: 4147 03bc 50fe 0abd 74d2 de3d 2b3c 88bb
00000340: c23a 143d ee57 b4bd 0d1e 44be 4417 0b3d
00000350: a10a 323c 8f24 71bc 4094 81bd 712a ecbb
00000360: 7ef4 f9bd 066c 54bd d6bf e5bd 44a1 7d3d
00000370: 5ee1 7d3a e02f d5bb 7b63 273d 1d0d 05be
00000380: 651e 04be 9010 463c b9bc 37bd 222f c7bd
00000390: 59a4 923d 2708 933d 05dd 33bd 1ef0 d33d
000003a0: 4c77 d13c d1f1 82bd 5267 a33d caba 56bd
000003b0: 2f97 7e3d 9bed ebbb 9084 743c 914a 27be
000003c0: b114 00bd 5a2c b03d b233 343d 09c2 0ebe
000003d0: 528e a93d f9c8 c53c 7990 933d d3f1 433e
000003e0: 7184 273d cfd8 9c3d 295d dbbd c1ed 793d
000003f0: 0064 043e 9262 67bc ffa6 76b9 ea65 a0bd

layer2.0.bias f4 [256]
0.13243867 0.051849324 -0.035265237 -0.14492823 -0.018105512 0.1496817 -0.08397147 0.10491502
0.16247058 -0.0433318 0.07878146 0.054270875 0.008205916 -0.07441597 0.08146906 0.002458668
0.13493204 -0.15641965 0.07685882 -0.06705338 -0.21649331 0.12403882 0.015201767 0.15022701
0.12923548 -0.066997275 0.06912157 -0.052382328 -0.16486256 0.15972234 0.09845293 -0.010381724
0.13588394 0.13548149 -0.12570293 0.1236162 -0.0119907195 0.026737334 -0.07063554 0.07668907
-0.071879804 0.062110353 -0.01920736 -0.025257448 0.14633463 0.087952174 0.24209231 0.052220196
-0.08118885 -0.028918784 0.147514 -0.030013831 -0.008276214 0.10001592 0.17831522 -0.032139204
-0.04382985 -0.020505887 0.109814964 0.021685146 0.002389201 -0.049598232 -0.05038374 0.049869884
-0.0058363653 0.060742807 -0.104530275 -0.036750365 0.04767945 -0.07878341 -0.1296727 -0.11264234
0.0018356153 -0.12806267 -0.21354266 -0.02735897 0.09226911 -0.08130133 -0.044916913 -0.13287012
0.014107036 0.024729487 0.029202618 -0.18192609 0.059340764 -0.0073894667 -0.06683249 0.007326031
-0.04460544 0.07804298 0.09779772 -0.1446448 0.027485594 -0.053603508 0.0016377867 -0.005276339
0.0098794615 -0.17073067 0.05626396 0.1072435 0.103769876 0.1209253 -0.098449685 -0.16615207
0.05766548 0.011946035 0.14872138 -0.07151743 -0.074646376 -0.06945504 -0.17453374 -0.12852912
0.1628737 -0.062463682 -0.046155237 0.0016413257 -0.044986766 0.06985563 -0.04547699 0.10328009
0.117982075 -0.1817048 -0.24387085 -0.08655136 0.15251927 0.09062925 0.12584059 -0.048698258
0.037374664 -0.18366086 -0.044409145 -0.104380645 0.13719225 -0.065704405 -0.030133052 0.15816909
-0.07109932 0.09973449 -0.18455815 0.009703346 0.10013631 -0.049952507 0.13970597 -0.10594989
-0.08399018 0.096612975 0.0140852295 -0.008149207 0.048641007 0.066595085 -0.04826943 0.0226732
0.17242572 0.05941656 0.086734556 -0.122873805 -0.26691625 0.18822221 0.049719337 0.1999594
-0.01073946 0.12774576 -0.15483375 0.09226912 0.1043393 -0.039072376 -0.14466329 -0.03577617
0.12689982 0.096740484 -0.114859715 0.18551154 -0.02017496 0.19957204 -0.030271491 -0.046416223
0.19921198 -0.10868887 -0.15762705 0.04128657 0.025092177 0.14205657 0.16714986 -0.031326026
0.05731819 0.096533306 0.07137028 0.25361195 -0.03168201 -0.04761345 -0.043827727 0.09046089
-0.007310638 -0.12811758 -0.031909563 0.15001266 0.09203185 0.00032508562 -0.05050557 0.09267945
-0.17314355 -0.12753108 -0.24935411 -0.15557902 -0.19926687 0.033205714 0.1034951 -0.07234652
0.10776815 0.0068875956 -0.18503088 0.06525337 0.033315435 0.11083931 0.045979064 -0.052849393
-0.0024837942 -0.044475477 0.06265656 0.06210163 -0.021142298 0.12845138 -0.035246413 -0.11733424
0.034224182 -0.09000904 -0.21451595 0.035237458 0.09701794 0.20467718 -0.041919395 0.12308831
-0.0026973141 -0.11683948 -0.0025197251 -0.109012626 -0.098669864 -0.03920247 -0.015731173 0.078623965
0.055230107 -0.0025600893 -0.058602966 0.054522134 -0.14315587 0.07936594 -0.12560041 0.029736767
0.059898097 -0.0020693613 0.10330957 -0.030795299 -0.059825726 0.057238743 -0.14074971 -0.1878502
00000000: 019e 073e f55f 543d 4872 10bd 1168 14be
00000010: 0352 94bc 2946 193e 3cf9 abbd b0dd d63d
00000020: b05e 263e af7c 31bd 2d58 a13d 234b 5e3d
00000030: 1b72 063c 6667 98bd 40d9 a63d 9b21 213b
00000040: a02b 0a3e 792c 20be 2868 9d3d 4853 89bd
00000050: 6cb0 5dbe 1108 fe3d d510 793c 1cd5 193e
00000060: 4e56 043e de35 89bd 9c8f 8d3d da8e 56bd
00000070: bbd1 28be 418e 233e b1a1 c93d 1b18 2abc
00000080: 2925 0b3e a9bb 0a3e 45b8 00be 7e2a fd3d
00000090: b974 44bc 4108 db3c 5ea9 90bd 290f 9d3d
000000a0: b835 93bd 6d67 7e3d c158 9dbc b5e8 cebc
000000b0: bfd8 153e 4520 b43d 0ce7 773e d8e4 553d
000000c0: 5746 a6bd 16e7 ecbc e90d 173e 91df f5bc
000000d0: f598 07bc 26d5 cc3d 4498 363e 66a4 03bd
000000e0: ee86 33bd f6fb a7bc abe6 e03d 0ca5 b13c
000000f0: 2494 1c3b 8427 4bbd 2e5f 4ebd 5d44 4c3d
00000100: fb3e bfbb 73cd 783d f813 d6bd 8d87 16bd
00000110: 874b 433d 3259 a1bd ecc8 04be 07b1 e6bd
00000120: 0799 f03a dc22 03be edaa 5abe eb1f e0bc
00000130: 96f7 bc3d 5081 a6bd ccfa 37bd 1b0f 08be
00000140: 3321 673c 7e95 ca3c 543a ef3c d54a 3abe
00000150: 4d0f 733d 5723 f2bb 79df 88bd 340f f03b
00000160: 32b4 36bd ffd4 9f3d 2c4a c83d c41d 14be
00000170: 7829 e13c 5a8f 5bbd 01ab d63a 24e5 acbb
00000180: 77dd 213c 05d4 2ebe 0a75 663d 7ba2 db3d
00000190: 4d85 d43d afa7 f73d fd9f c9bd c523 2abe
000001a0: a332 6c3d 4db9 433c 6b4a 183e bb77 92bd
000001b0: 33e0 98bd 723e 8ebd f9b8 32be 239d 03be
000001c0: 5dc8 263e ebd9 7fbd 460d 3dbd c021 d73a
000001d0: 0b44 38bd 7810 8f3d 1546 3abd 8384 d33d
000001e0: 96a0 f13d d310 3abe 48b9 79be d741 b1bd
000001f0: 032e 1c3e d49b b93d 5bdc 003e d377 47bd
00000200: 2d16 193d 9811 3cbe 5de6 35bd 85c5 d5bd
00000210: 207c 0c3e 0890 86bd 97d9 f6bc 14f7 213e
00000220: 859c 91bd 9941 cc3d d0fc 3cbe c8fa 1e3c
00000230: 4414 cd3d 009b 4cbd 150f 0f3e 42fc d8bd
00000240: 0b03 acbd 06dd c53d bcc5 663c 4084 05bc
00000250: cb3b 473d 0163 883d 2ab6 45bd 26bd b93c
00000260: 5e90 303e c75e 733d e3a1 b13d 43a5 fbbd
00000270: 3fa9 88be 53bd 403e 81a6 4b3d 28c2 4c3e
00000280: 8ff4 2fbc c9cf 023e bd8c 1ebe 98f7 bc3d
00000290: d8af d53d 5b0a 20bd 9d22 14be 098a 12bd
000002a0: 07f2 013e e01f c63d 923b ebbd bdf6 3d3e
000002b0: f545 a5bc 9d5c 4c3e ebfb f7bc f01e 3ebd
000002c0: 3afe 4b3e 4598 debd fc68 21be 1b1c 293d
000002d0: 1c8e cd3c 4777 113e 5529 2b3e b84f 00bd
000002e0: 7ac6 6a3d 41b3 c53d 952a 923d 6dd9 813e
000002f0: ffc4 01bd 5206 43bd b484 33bd 8f43 b93d
00000300: 148e efbb 4131 03be 9ab3 02bd eb9c 193e
00000310: 327b bc3d 4170 aa39 eede 4ebd b9ce bd3d
00000320: 8b4c 31be 8297 02be af56 7fbe 1b50 1fbe
00000330: 9d0c 4cbe b702 083d 3df5 d33d 6a2a 94bd
00000340: 8cb5 dc3d 57b1 e13b bc78 3dbe 8fa3 853d
00000350: c475 083d b8ff e23d 8b54 3c3d 9b78 58bd
00000360: 27c7 22bb eb2b 36bd 1552 803d 475e 7e3d
00000370: 9d32 adbc c288 033e 8b5e 10bd ef4c f0bd
00000380: a82e 0c3d a956 b8bd 12aa 5bbe 2755 103d
00000390: 57b1 c63d e596 513e acb3 2bbd b915 fc3d
000003a0: 6cc5 30bb 8a49 efbd f921 25bb 0342 dfbd
000003b0: 6d13 cabd c592 20bd a9de 80bc 9a05 a13d
000003c0: f738 623d 2cc7 27bb aa09 70bd 9a52 5f3d
000003d0: 7497 12be 9c8a a23d 659d 00be 859a f33c
000003e0: b557 753d 1f9e 07bb f893 d33d 6c46 fcbc
000003f0: d20b 75bd 2c73 6a3d b120 10be ce5b 40be

layer3.0.weight f4 [128, 256]
-0.25869107 -0.032999106 0.01379482 -0.10718805 0.023404844 -0.008670758 -0.1550848 0.09757614
-0.05083712 -0.27715078 0.012483612 -0.14970122 0.076138556 -0.011044992 -0.15347397 0.03572067
-0.019997103 -0.057321526 0.0022366734 -0.12837286 -0.24487802 0.110241085 -0.016637476 0.17055541
-0.05067094 -0.08173537 0.01046026 -0.041167147 0.112288006 0.10673128 0.051824115 -0.10375766
0.085600175 0.12494405 -0.26618674 0.020117834 0.014025352 -0.1134535 0.054112732 -0.046026025
-0.21945052 0.09384444 -0.040318232 0.03213156 -0.0759806 0.1325894 -0.045857277 0.101522356
0.043477684 0.18808956 0.01726367 0.075783074 -0.006054637 -0.11676942 0.03965963 -0.033951774
0.0042322124 -0.012357473 -0.052571468 -0.050390735 -0.14239511 0.12543406 -0.13186438 -0.13254388
0.022470376 -0.05510678 -0.19957365 -0.22421657 0.11714224 0.07187637 0.04596626 0.0036013385
0.0044458886 -0.08495638 0.10959123 -0.099268004 0.04592365 0.06616673 0.0039082784 0.024383778
0.020846179 0.12325637 0.05678923 -0.08885395 -0.036167253 -0.006631728 0.039740913 -0.00090154883
-0.13145868 -0.038205348 -0.02846081 -0.24106137 -0.10648676 -0.0345004 -0.13664867 0.037742335
-0.020365087 0.25883868 0.03990456 0.14764436 0.0276046 -0.0030253644 0.0153484065 0.17465863
-0.13926998 0.023910994 0.0065947836 -0.012164947 -0.093133405 0.021030806 -0.1702675 0.0019684087
-0.0050805793 -0.035419036 0.17060271 -0.0012790716 -0.061930906 0.04418699 -0.025689349 -0.07465572
-0.027670454 -0.07578895 0.0042570294 -0.10661524 -0.03245273 0.07657337 0.08698127 0.015447678
0.017787134 0.2831465 -0.07271876 0.02712 -0.066161565 -0.1093715 0.1137589 0.045291327
-0.10850961 0.04958307 0.26349485 0.0589614 -0.16590995 0.051855117 0.03784965 -0.081951976
0.07819737 0.16502629 0.020704433 -0.07826364 -0.02333968 -0.016751941 0.018701153 0.034118645
0.04955993 -0.2881166 -0.08150173 0.12548679 -0.104915865 0.17181993 -0.100455746 0.016172051
-0.22304681 0.10852223 0.045133892 0.03959987 0.111690834 0.030225322 -0.05133858 -0.19281915
-0.07049845 0.09026999 0.023450356 0.027284358 0.11871628 -0.026720282 0.13888383 0.044795014
-0.068509705 0.00039482256 0.0042670895 0.03894761 -0.07827235 -0.0067890566 -0.014669462 0.0056881416
0.061517134 -0.0068997913 0.042516895 0.07841678 0.010912053 0.046419658 0.06858175 0.08037861
-0.063362345 -0.18072811 -0.16957821 -0.02434158 0.108961284 0.03464898 0.05619812 -0.09160692
-0.011544832 -0.027507069 -0.41023993 0.03353927 -0.22350347 -0.08801507 -0.1352399 0.061057113
-0.06327425 0.053106517 -0.052403018 -0.1379941 -0.022173472 -0.19124553 -0.20753907 0.025123898
0.10914683 0.022747256 0.048558496 0.04124891 -0.0710941 -0.13361336 -0.16325785 0.0003879408
-0.047974907 0.03946979 0.10536099 0.08379829 0.00977508 -0.064047135 0.014524386 -0.076541506
0.0836317 -0.035564493 -0.15975991 0.16540408 -0.24851549 0.14595485 0.015536273 0.060760975
0.14093447 -0.09879251 -0.04332465 -0.0179163 -0.21745287 -0.3508418 -0.17354545 0.06436933
-0.13164839 0.067087986 0.098831505 -0.006226175 0.057289265 -0.13793978 -0.09976155 -0.11952355
00000000: 2873 84be 122a 07bd ab03 623c 6985 dbbd
00000010: 84bb bf3c cc0f 0ebc 8dce 1ebe 00d6 c73d
00000020: 953a 50bd b5e6 8dbe 1088 4c3c 474b 19be
00000030: 88ee 9b3d 0ef6 34bc 4828 1dbe d64f 123d
00000040: f7d0 a3bc fac9 6abd 2795 123b 2d74 03be
00000050: 4ec1 7abe 14c6 e13d 514b 88bc 14a6 2e3e
00000060: 558c 4fbd e064 a7bd 8361 2b3c e29e 28bd
00000070: 41f7 e53d ee95 da3d 8645 543d e57e d4bd
00000080: 254f af3d abe2 ff3d a149 88be 28ce a43c
00000090: 97ca 653c 4f5a e8bd 50a5 5d3d c985 3cbd
000000a0: a3b7 60be 8431 c03d bb24 25bd 629c 033d
000000b0: b89b 9bbd 84c5 073e d7d4 3bbd f4ea cf3d
000000c0: a815 323d 8d9a 403e 8a6c 8d3c 2834 9b3d
000000d0: fa65 c6bb ce24 efbd 2372 223d 0411 0bbd
000000e0: 5fae 8a3b 0077 4abc 2e55 57bd 8466 4ebd
000000f0: 06d0 11be c971 003e 7507 07be 95b9 07be
00000100: cb13 b83c a6b7 61bd 095d 4cbe 0799 65be
00000110: 45e8 ef3d eb33 933d 1e47 3c3d 6f04 6c3b
00000120: d1ae 913b 9cfd adbd 5e71 e03d 064d cbbd
00000130: 701a 3c3d 6c82 873d 0411 803b 7dc0 c73c
00000140: 9bc5 aa3c d66d fc3d d39b 683d 0ff9 b5bd
00000150: 1d24 14bd f74e d9bb 5ec7 223d eb55 6cba
00000160: 1b9d 06be 367d 1cbd a526 e9bc cbd8 76be
00000170: bb15 dabd 4b50 0dbd a1ed 0bbe b597 1a3d
00000180: afd4 a6bc 8186 843e f772 233d 1530 173e
00000190: 0b23 e23c 3145 46bb e277 7b3c b6d9 323e
000001a0: ca9c 0ebe fde0 c33c 0e19 d83b 7c4f 47bc
000001b0: babc bebd cc48 ac3c 9b5a 2ebe 6b00 013b
000001c0: fd7a a6bb 8d13 11bd 7ab2 2e3e 85a6 a7ba
000001d0: 43ab 7dbd 6bfd 343d 7872 d2bc 19e5 98bd
000001e0: 26ad e2bc 3d37 9bbd 8d7e 8b3b 1759 dabd
000001f0: 27ed 04bd 80d2 9c3d 3c23 b23d 4218 7d3c
00000200: 53b6 913c 94f8 903e 93ed 94bd c32a de3c
00000210: b77f 87bd 2afe dfbd 6dfa e83d 6683 393d
00000220: 493a debd 9e17 4b3d cce8 863e 8281 713d
00000230: 4ce4 29be 0866 543d 3c08 1b3d 70d6 a7bd
00000240: f125 a03d a7fc 283e 589c a93c b048 a0bd
00000250: db32 bfbc 5e3b 89bc 2933 993c febf 0b3d
00000260: 5aff 4a3d 0584 93be 61ea a6bd 9c7f 003e
00000270: 21de d6bd 90f1 2f3e bebb cdbd 407b 843c
00000280: 6266 64be e740 de3d 51de 383d 7933 223d
00000290: 2abe e43d 189b f73c 6748 52bd 6272 45be
000002a0: 7e61 90bd 79df b83d f61a c03c 7283 df3c
000002b0: 8521 f33d 7ee4 dabc 9037 0e3e fa7a 373d
000002c0: d14e 8cbd 3000 cf39 f1d2 8b3b 8787 1f3d
000002d0: 414d a0bd bc76 debb 2f58 70bc 9763 ba3b
000002e0: 64f9 7b3d a517 e2bb 3226 2e3d fa98 a03d
000002f0: 78c8 323c 8a22 3e3d 9774 8c3d 8a9d a43d
00000300: 1ec4 81bd ca10 39be e9a5 2dbe fe67 c7bc
00000310: 1827 df3d 17ec 0d3d 0030 663d 699c bbbd
00000320: 8926 3dbc 8156 e1bc f80a d2be 7960 093d
00000330: 18de 64be 3f41 b4bd 547c 0abe 0617 7a3d
00000340: ee95 81bd 3886 593d 8ca4 56bd 534e 0dbe
00000350: 24a5 b5bc ded5 43be 1f85 54be a2d0 cd3c
00000360: 6088 df3d 7458 ba3c 46e5 463d 9ef4 283d
00000370: c999 91bd f1d1 08be 112d 27be 8864 cb39
00000380: 5681 44bd 13ab 213d 81c7 d73d 709e ab3d
00000390: a827 203c 252b 83bd b1f7 6d3c cbc1 9cbd
000003a0: 1947 ab3d 13ac 11bd 1a98 23be b05f 293e
000003b0: d87a 7ebe 3075 153e da8b 7e3c 80e0 783d
000003c0: 2051 103e ba53 cabd 3075 31bd 34c5 92bc
000003d0: f7ab 5ebe 89a1 b3be e6b5 31be 11d4 833d
000003e0: d6ce 06be 6d65 893d 2c68 ca3d f104 ccbb
000003f0: 26a8 6a3d 1640 0dbe c94f ccbd c3c8 f4bd

layer3.0.bias f4 [128]
0.19790284 0.073452406 0.08878463 0.043045744 0.23232657 0.0061152116 -0.0883563 0.08358861
0.03914121 0.1806492 -0.013618166 0.046387263 0.23407121 0.14178266 0.12341257 0.04406963
0.17131224 0.048729043 0.06944661 0.14430925 0.11141975 0.20993453 -0.1620683 0.122131206
0.2598397 0.023158738 0.114183806 -0.041704804 -0.07372147 -0.1593936 -0.03311508 0.14419766
-0.045399636 0.14949611 -0.013293522 0.14634351 0.15691917 0.09803177 0.14101298 0.07724076
0.096127324 0.12481827 -0.012988108 0.123445675 -0.081584506 0.2542098 -0.07998143 0.0033211596
0.15073654 0.0466832 0.24524954 0.14584239 0.13058929 0.13708782 -0.14371154 -0.15908174
-0.026641745 0.050266035 -0.04103468 0.008623388 0.012005115 -0.13017434 0.14598787 0.086446635
0.12162937 0.23299009 0.13247481 0.2206197 0.0014153068 -0.023828687 0.1708428 0.1067319
0.050717574 0.097558305 -0.07518142 0.090751804 0.07700709 -0.03224067 -0.0676469 -0.066515945
-0.05547883 0.16928795 -0.15432423 0.01686954 0.1258294 0.029706685 0.082786 0.17787248
0.102621354 0.01862277 0.3017926 -0.0003204819 -0.0407583 0.059645798 0.19970967 0.18271925
0.06849456 -0.029283976 -0.063114494 0.027875233 0.20472968 0.008293066 0.08895983 0.09265033
0.16062397 -0.08222065 0.04298323 0.19532457 0.05102041 -0.0115221515 0.19409917 -0.12444717
-0.23961106 0.22764082 0.05599596 0.024427867 -0.009980483 0.058244485 0.06263385 0.070791356
0.1520317 -0.10398476 0.09717784 0.18299916 -0.03258741 0.13087809 0.083391234 0.16634652
00000000: 0ba7 4a3e 376e 963d b7d4 b53d bc50 303d
00000010: 04e7 6d3e 1d62 c83b 26f4 b4bd 8130 ab3d
00000020: 8952 203d 1bfc 383e ba1e 5fbc 9200 3e3d
00000030: 5db0 6f3e 792f 113e bbbf fc3d 5b82 343d
00000040: 7a6c 2f3e 1b98 473d 063a 8e3d cec5 133e
00000050: 0a30 e43d 14f9 563e 3cf5 25be ed1f fa3d
00000060: b609 853e 65b7 bd3c 33d9 e93d a8d2 2abd
00000070: 48fb 96bd 1338 23be aea3 07bd 8da8 133e
00000080: f8f4 39bd 8215 193e 13cd 59bc 13db 153e
00000090: 6baf 203e e1c4 c83d b565 103e 6730 9e3d
000000a0: 67de c43d b9a0 ff3d 13cc 54bc 16d1 fc3d
000000b0: c715 a7bd c927 823e 4ecd a3bd d0a7 593b
000000c0: ae5a 1a3e e236 3f3d b222 7b3e b557 153e
000000d0: 33b9 053e c060 0c3e 1e29 13be 53e6 22be
000000e0: ca3f dabc c2e3 4d3d fb13 28bd 1c49 0d3c
000000f0: 1ab1 443c 6c4c 05be d87d 153e ef0a b13d
00000100: d218 f93d f494 6e3e 7aa7 073e 21ea 613e
00000110: d181 b93a 6134 c3bc 6af1 2e3e 4196 da3d
00000120: 3bbd 4f3d a6cc c73d b7f8 99bd 15dc b93d
00000130: e5b5 9d3d cb0e 04bd 758a 8abd 8339 88bd
00000140: c53d 63bd d259 2d3e 2c07 1ebe fd31 8a3c
00000150: 6cd9 003e 6f5b f33c b58b a93d 3424 363e
00000160: 252b d23d c88e 983c 8f84 9a3e 5a06 a8b9
00000170: 2df2 26bd 274f 743d b180 4c3e c11a 3b3e
00000180: e046 8c3d f3e4 efbc 2c42 81bd 9a5a e43c
00000190: a8a4 513e a4df 073c 9230 b63d 75bf bd3d
000001a0: 9c7a 243e 4d63 a8bd 2f0f 303d 2a03 483e
000001b0: c7fa 503d 68c7 3cbc efc1 463e 28de febd
000001c0: 9a5c 75be ad1a 693e 055c 653d f31c c83c
000001d0: 2e85 23bc c591 6e3d 2d46 803d 0ffb 903d
000001e0: 33ae 1b3e f6f5 d4bd 2d05 c73d 2264 3b3e
000001f0: 607a 05bd e804 063e 06c9 aa3d be56 2a3e

layer4.0.weight f4 [64, 128]
-0.08182309 0.24524745 0.066362694 -0.082445934 0.036582965 0.053108636 -0.20250936 -0.107558265
-0.2505354 -0.17611083 -0.18054648 0.24347144 -0.020451665 0.059699018 0.051314536 -0.023861356
0.18331967 0.2385836 -0.059434544 0.026567522 0.050597377 -0.041115798 -0.19291486 0.06269643
0.10223805 0.07427352 0.0572544 -0.076030724 -0.01017931 -0.18418252 -0.0034112874 0.13976707
0.14890966 0.11446034 0.0044070184 0.20650496 0.24266657 0.13868745 -0.1040788 -0.03376982
-0.033570994 -0.029606806 0.1180423 -0.025687069 0.14850593 0.049658023 -0.06172749 -0.085504875
0.0023498244 0.32533243 -0.094682656 0.20998287 -0.026277121 0.17516583 -0.22036463 -0.059590578
0.02377071 0.0001056592 -0.015266441 -0.19575772 0.11468032 -0.086151786 0.24229956 0.024495045
-0.1429561 0.23787285 0.13679464 -0.033214122 0.053380657 0.019567862 0.1316248 -0.061847214
0.078032106 -0.22062227 -0.14163667 0.046214987 0.12822051 -0.2417794 -0.039716322 -0.1661894
-0.029006697 0.05368854 -0.18756627 -0.09555522 0.10364597 -0.16889526 -0.07634623 0.22870192
0.06104364 0.12017478 0.033783637 0.23007758 -0.055301335 0.03111283 0.049144212 -0.03360118
0.15086943 -0.0036768129 -0.11067819 -0.20992266 0.09777022 0.11835171 -0.026099605 0.12512922
0.14395164 0.029698657 -0.050984964 0.03366249 0.03495524 0.22062641 0.12793933 -0.1647893
-0.1500967 0.11425203 -0.056984928 -0.109374456 0.023926683 0.0011015657 0.106429145 0.20550744
0.2831835 0.13584417 0.25485727 0.08295262 0.03401577 -0.061041445 -0.18094645 0.06992365
-0.15112561 0.20675306 -0.31256032 -0.025286041 -0.032368463 0.2551056 -0.07540791 0.13934751
0.046260264 -0.14164574 0.08176832 -0.11925602 0.030539932 0.031372875 -0.11500278 -0.02244619
-0.06760334 -0.00065570377 -0.13548778 -0.07195801 -0.06357848 0.17267716 -0.18854626 -0.06353386
0.06754054 0.26978904 0.16233948 0.17993307 -0.038764015 -0.13203037 0.027487712 -0.056872565
0.12147089 -0.17806996 -0.043053478 -0.016300136 -0.0006448579 0.07737313 -0.059566673 0.065715015
0.12044388 0.29266566 0.050707754 -0.29469535 -0.07086216 0.31519312 0.04121944 0.045291122
-0.035645135 -0.021051226 0.078359626 -0.037800908 0.0712199 0.07185202 -0.26275918 -0.03259909
0.25739688 -0.11638409 -0.043996345 0.10858289 -0.0007857972 -0.12405883 0.116353326 0.042825267
-0.005441018 0.043724135 0.013348511 0.09240915 0.10380453 0.11584143 0.014733304 0.15641835
0.16451134 -0.008519192 0.11349978 0.039118588 0.17868751 0.19098727 -0.010290429 0.15109946
0.025569912 0.16969538 0.12479161 -0.034444444 -0.036940254 0.20368443 -0.19817974 -0.034328096
0.102227114 0.22780962 0.17743635 0.0036241363 -0.2681283 -0.011409799 -0.009744971 0.14578249
0.08976775 -0.11852321 0.023793703 0.0065234457 0.17505985 0.132688 -0.10917574 0.18295307
-0.019020645 0.34621707 -0.16047208 0.013215332 -0.09709102 -0.16084614 -0.06949251 0.07358066
-0.0055735367 0.041177716 0.123127714 -0.05210926 -0.02168472 -0.030705323 -0.120399065 -0.12572312
0.05412119 0.16200227 0.06860463 -0.15164156 -0.024367686 0.21118186 0.1913574 -0.009395093
00000000: dd92 a7bd 2622 7b3e 2ae9 873d 6ad9 a8bd
00000010: 05d8 153d 7188 593d 9d5e 4fbe 8247 dcbd
00000020: 2d46 80be 6656 34be 2de1 38be 9450 793e
00000030: 408a a7bc f586 743d 312f 523d e478 c3bc
00000040: 27b8 3b3e 424f 743e a371 73bd 22a4 d93c
00000050: 323f 4f3d 0a69 28bd 798b 45be fc66 803d
00000060: 2f62 d13d b71c 983d 9783 6a3d ffb5 9bbd
00000070: 1fc7 26bc 589a 3cbe e88f 5fbb 191f 0f3e
00000080: c67b 183e 2f6a ea3d c068 903b 0976 533e
00000090: 967d 783e 1504 0e3e 4427 d5bd 3952 0abd
000000a0: bd81 09bd f989 f2bc 29c0 f13d b06d d2bc
000000b0: f011 183e 3666 4b3d f7d5 7cbd 2e1d afbd
000000c0: 83ff 193b f991 a63e fbe8 c1bd c005 573e
000000d0: 1e43 d7bc ac5e 333e 44a7 61be 4015 74bd
000000e0: cbba c23c 5a95 dd38 1820 7abc b674 48be
000000f0: 84dd ea3d 5970 b0bd 601d 783e d5a9 c83c
00000100: 1563 12be f194 733e e513 0c3e 880b 08bd
00000110: ada5 5a3d c84c a03c a7c8 063e 8153 7dbd
00000120: 4ccf 9f3d ceea 61be 3409 11be ed4b 3d3d
00000130: 3d4c 033e 0595 77be 95ad 22bd 8e2d 2abe
00000140: 749f edbc 84e8 5b3d 5f11 40be 75b2 c3bd
00000150: 5744 d43d e1f2 2cbe 6a5b 9cbd d630 6a3e
00000160: e508 7a3d 321e f63d b660 0a3d 7599 6b3e
00000170: a783 62bd 55e0 fe3c 714b 493d 64a1 09bd
00000180: 847d 1a3e aff6 70bb 3fab e2bd f7f5 56be
00000190: c13b c83d 6262 f23d d7ce d5bc e021 003e
000001a0: 0f68 133e 994a f33c 9cd5 50bd aee1 093d
000001b0: 3a2d 0f3d e4eb 613e 8702 033e 87be 28be
000001c0: f3b2 19be f8fc e93d 0769 69bd b7ff dfbd
000001d0: e401 c43c 6962 903a 86f7 d93d 8b70 523e
000001e0: 6dfd 903e bc1a 0b3e a77c 823e 10e3 a93d
000001f0: 1f54 0b3d 9806 7abd 074a 39be 2134 8f3d
00000200: acc0 1abe 13b7 533e e807 a0be ac24 cfbc
00000210: cb94 04bd 349d 823e 766f 9abd 1db1 0e3e
00000220: 677b 3d3d 950b 11be 2676 a73d 803c f4bd
00000230: e12e fa3c d880 003d 9486 ebbd 12e1 b7bc
00000240: 9f73 8abd 89e3 2bba 4fbd 0abe b95e 93bd
00000250: 6f35 82bd 48d2 303e 4512 41be 0a1e 82bd
00000260: b252 8a3d ca21 8a3e 523c 263e 6040 383e
00000270: 04c7 1ebd f832 07be e92d e13c 35f3 68bd
00000280: bbc5 f83d f957 36be d858 30bd dd87 85bc
00000290: ae0b 29ba ce75 9e3d 2ffc 73bd 9895 863d
000002a0: 48ab f63d 46d8 953e efb2 4f3d 4fe2 96be
000002b0: 2e20 91bd fe60 a13e b7d5 283d 2f83 393d
000002c0: a200 12bd 9f73 acbc 037b a03d 20d5 1abd
000002d0: bddb 913d 2727 933d 5f88 86be a086 05bd
000002e0: 86c9 833e c85a eebd 8335 34bd b560 de3d
000002f0: f5fd 4dba 8e12 febd a74a ee3d 8c69 2f3d
00000300: 914a b2bb 1418 333d b7b3 5a3c 0241 bd3d
00000310: 7897 d43d 463e ed3d f563 713c 222c 203e
00000320: a975 283e 1594 0bbc 9372 e83d d03a 203d
00000330: dcf9 363e 2b92 433e 3099 28bc d1b9 1a3e
00000340: fe77 d13c a0c4 2d3e be92 ff3d 9e15 0dbd
00000350: aa4e 17bd a792 503e a1ef 4abe 9e9b 0cbd
00000360: 735c d13d ed46 693e e0b1 353e eb82 6d3b
00000370: 1d48 89be 2af0 3abc 5fa9 1fbc 0148 153e
00000380: 27d8 b73d 4cbc f2bd 03eb c23c a1c2 d53b
00000390: e442 333e 5ddf 073e 8897 dfbd 0d58 3b3e
000003a0: 2fd1 9bbc 5d43 b13e cb52 24be 1f85 583c
000003b0: a8d7 c6bd dab4 24be 1752 8ebd 75b1 963d
000003c0: 37a2 b6bb f7a9 283d 622a fc3d 8570 55bd
000003d0: 27a4 b1bc bb89 fbbc c993 f6bd 90bd 00be
000003e0: 2eae 5d3d ece3 253e 9680 8c3d ed47 1bbe
000003f0: be9e c7bc 0f40 583e 32f3 433e e0ed 19bc

layer4.0.bias f4 [64]
0.21070366 0.14496456 0.08877107 0.07883859 0.30121836 0.22382432 0.15114273 0.27704132
0.1547125 0.26788226 -0.11898431 0.09113536 0.06139597 0.13133003 -0.020124746 0.053083528
0.19620983 0.16904788 0.16912964 0.056272782 -0.051274464 -0.07513316 0.10238895 0.22681493
-0.029001717 0.15646033 0.11579269 0.15018149 0.19255379 -0.051431347 0.33847773 0.18027385
0.06706415 0.10481061 -0.051761318 0.31852394 0.1351262 0.12639748 0.082752585 0.15587145
-0.11691991 0.046258215 0.31813675 0.24739094 -0.106173895 0.11653908 0.021807758 0.18656875
0.14135195 0.13516963 0.124231525 0.11861517 0.10415832 0.050806418 0.007924722 0.17683095
0.12759437 0.12195832 0.085879296 0.18348895 0.12893674 -0.045788813 0.08982898 0.07495105
00000000: b3c2 573e 9771 143e 9bcd b53d 2076 a13d
00000010: 4b39 9a3e 3432 653e 29c5 1a3e 5cd8 8d3e
00000020: f46c 1e3e dd27 893e 0cae f3bd 2da5 ba3d
00000030: 577a 7b3d 617b 063e a7dc a4bc 1d6e 593d
00000040: 3beb 483e e31a 2d3e 5230 2d3e 4a7e 663d
00000050: 2c05 52bd 6adf 99bd 4cb1 d13d 2c42 683e
00000060: 0295 edbc 2337 203e b824 ed3d 2dc9 193e
00000070: d22c 453e ada9 52bd f44c ad3e b599 383e
00000080: ee58 893d f2a6 d63d ad03 54bd 9215 a33e
00000090: 865e 0a3e 576e 013e 307a a93d c49c 1f3e
000000a0: b573 efbd 4179 3d3d d2e2 a23e 0d54 7d3e
000000b0: b371 d9bd 0bac ee3d 2fa6 b23c e10b 3f3e
000000c0: 91be 103e e869 0a3e 196d fe3d 83ec f23d
000000d0: f550 d53d 641a 503d b1d6 013c 2c13 353e
000000e0: 19a8 023e 49c5 f93d 7ce1 af3d 87e4 3b3e
000000f0: fe07 043e 0d8d 3bbd 42f8 b73d f07f 993d

output.weight f4 [10, 64]
0.14721397 0.1569569 0.17271633 0.13449888 -0.15064643 0.19116238 -0.22463307 -0.46273553
0.11075737 -0.26265043 -0.12457692 -0.31442374 0.15688892 -0.090232104 -0.29675564 0.0615666
0.07244672 0.1049478 -0.25578898 0.11639744 -0.09026938 -0.2389485 0.10952278 -0.4200376
-0.23005117 0.048911482 -0.1874116 0.013961013 -0.07100739 0.16647218 -0.31916565 0.12507433
0.06363317 -0.10824912 -0.18740809 -0.33089182 0.07130926 0.16720353 0.1523658 -0.3259445
0.07455062 -0.30897084 -0.33323103 0.09884183 -0.10264268 0.030653777 0.026012834 -0.13423178
-0.41633907 -0.033140946 0.14626595 0.12754148 0.13018139 0.1108126 0.13200794 0.15638036
-0.37183014 -0.23653819 -0.1783898 0.1554858 -0.18384868 0.10663063 0.022972144 0.016863126
-0.014018439 -0.0072527598 -0.05064855 -0.27315447 0.0008502138 -0.1734162 -0.050708745 0.044581164
-0.17956872 -0.20114496 -0.014946303 0.13853525 -0.36758524 -0.17331961 0.1981194 0.1439397
0.19731067 -0.24559674 0.013120812 -0.31169596 -0.11167967 -0.024489196 0.15739782 -0.2242686
0.20197186 -0.23799187 -0.16097023 -0.13025181 -0.26895308 0.043393772 -0.17891333 0.13176103
-0.024259524 -0.14976375 0.13583893 -0.37595367 -0.26102653 0.108881205 -0.08172424 0.13966672
0.11711877 -0.010014684 -0.33324617 0.08672166 0.12529197 0.16764021 0.08606286 -0.21440965
0.08533476 -0.315999 -0.08633173 -0.15336673 -0.19143917 0.12795147 0.13783114 -0.23163643
-0.21615607 -0.024091678 0.1641413 -0.10970303 -0.11618462 -0.08438026 -0.13892865 0.13832562
0.15998296 -0.29207546 -0.1993353 0.14605442 0.1005839 0.15054901 -0.31893393 0.07717216
0.051447846 0.16701072 0.03144721 -0.18317166 0.09870123 0.14730877 0.093259335 -0.37072095
0.18954615 0.060686354 -0.4226215 -0.13329788 0.0056483 0.034139205 0.13287054 0.13531707
0.038602054 -0.019680686 -0.33813542 0.16979477 0.14569785 -0.16727138 0.05739941 0.14530252
-0.4428064 -0.346851 -0.108618125 0.05360222 -0.16652021 -0.35904348 -0.060865134 0.10919017
-0.29545453 -0.33992097 -0.038836576 0.020986885 -0.11183203 0.089612015 -0.075478934 0.06070424
-0.17730486 -0.067773424 0.15592358 -0.32465583 0.11304416 0.02906534 0.13738276 0.1503793
-0.29264548 -0.21904263 -0.29957426 0.19061421 0.2033977 -0.23754466 -0.03788317 0.027340561
0.15742372 0.1092967 -0.032200165 0.0069817198 0.12597254 0.22438842 0.12247456 0.05534355
0.16279694 0.14269087 -0.053259403 -0.47777393 -0.15638395 0.080589466 -0.22890842 -0.05117906
0.17373985 -0.018849926 -0.02534282 0.19181445 0.015203707 -0.16434547 -0.09714797 0.07993921
-0.23150465 0.12252236 0.07291582 -0.19480295 -0.31422138 -0.24822673 0.03145913 -0.2582269
0.10952718 0.13672866 0.0431191 0.05643576 0.11905702 0.06267386 -0.25640714 -0.00801737
-0.059043363 0.07098771 -0.27683085 0.060065035 0.07508743 -0.17687927 0.09253113 0.08794943
0.16523275 0.11195534 -0.17819248 -0.17229378 -0.19070242 -0.08128437 -0.32164112 -0.2638144
0.12252881 0.041833434 -0.32187638 0.14646457 0.19877428 -0.37928417 0.115174666 -0.31305864
00000000: 42bf 163e 4fb9 203e 8ddc 303e 13ba 093e
00000010: 0f43 1abe 12c0 433e 3606 66be aceb ecbe
00000020: c3d4 e23d 1e7a 86be 2f22 ffbd 26fc a0be
00000030: 7da7 203e 9ccb b8bd 5bf0 97be 422d 7c3d
00000040: f25e 943d dfee d63d c6f6 82be c861 ee3d
00000050: 27df b8bd eaae 74be 7b4d e03d 2b0f d7be
00000060: 8992 6bbe 6857 483d d4e8 3fbe bcbc 643c
00000070: 536c 91bd af77 2a3e ae69 a3be 7c13 003e
00000080: 1c52 823d b7b1 ddbd e8e7 3fbe a76a a9be
00000090: 970a 923d 6737 2b3e c805 1c3e 33e2 a6be
000000a0: ffad 983d 6d31 9ebe 429d aabe 966d ca3d
000000b0: 5336 d2bd a11d fb3c de18 d53c 0e74 09be
000000c0: 652a d5be cdbe 07bd bec6 153e 3c9a 023e
000000d0: 454e 053e b7f1 e23d 172d 073e 2c22 203e
000000e0: 8560 bebe 1137 72be d1ab 36be ab37 1f3e
000000f0: d442 3cbe 2961 da3d 1430 bc3c 8a24 8a3c
00000100: 98ad 65bc 8fa8 edbb db74 4fbd e7da 8bbe
00000110: e2e0 5e3a 0494 31be f9b3 4fbd bd9a 363d
00000120: dde0 37be f2f8 4dbe 57e1 74bc 2fdc 0d3e
00000130: 2234 bcbe b27a 31be d0df 4a3e ee64 133e
00000140: cf0b 4a3e b67d 7bbe adf8 563c 9d96 9fbe
00000150: 50b8 e4bd 919d c8bc e52c 213e aba6 65be
00000160: b6d1 4e3e 24b4 73be 61d5 24be bb60 05be
00000170: 38b4 89be abbd 313d 0e35 37be 5dec 063e
00000180: e9bb c6bc ab5b 19be 5c19 0b3e 007d c0be
00000190: 45a5 85be 1cfd de3d 0a5f a7bd cb04 0f3e
000001a0: f7db ef3d a114 24bc 3e9f aabe 209b b13d
000001b0: 8a4c 003e e0a9 2b3e ba41 b03d 348e 5bbe
000001c0: fec3 ae3d 9fca a1be b1ce b0bd 2b0c 1dbe
000001d0: a108 44be b605 033e 9b23 0d3e 1a32 6dbe
000001e0: 0458 5dbe e95b c5bc a814 283e fbab e0bd
000001f0: 34f2 edbd 8fcf acbd 5043 0ebe 3ba5 0d3e
00000200: 93d2 233e ea8a 95be 8e1e 4cbe 4a8f 153e
00000210: effe cd3d 8529 1a3e 4f4b a3be 700c 9e3d
00000220: faba 523d dc04 2b3e cace 003d 5a91 3bbe
00000230: df23 ca3d 1cd8 163e c0fe be3d 23cf bdbe
00000240: 6318 423e 4192 783d d861 d8be 3d7f 08be
00000250: 6015 b93b 8dd5 0b3d 370f 083e 8f90 0a3e
00000260: 301d 1e3d 6439 a1bc 1620 adbe aede 2d3e
00000270: d131 153e 3049 2bbe a51b 6b3d 2fca 143e
00000280: 85b7 e2be 7496 b1be 2e73 debd 008e 5b3d
00000290: 4684 2abe 8cd4 b7be b84d 79bd 199f df3d
000002a0: d145 97be 1f0a aebe 1a13 1fbd b0ec ab3c
000002b0: 3108 e5bd 8186 b73d b394 9abd 02a5 783d
000002c0: 688f 35be cbcc 8abd 6eaa 1f3e 4a39 a6be
000002d0: b283 e73d 701a ee3c 11ae 0c3e 08fd 193e
000002e0: a1d5 95be b64c 60be cc61 99be 5f30 433e
000002f0: 7d47 503e e83e 73be 622b 1bbd 50f9 df3c
00000300: af33 213e f3d6 df3d 52e4 03bd e9c6 e43b
00000310: f2fe 003e 14c6 653e f1d3 fa3d ebaf 623d
00000320: 3eb4 263e 8e1d 123e 8826 5abd c99e f4be
00000330: 1d23 20be 170c a53d f866 6abe 22a1 51bd
00000340: dce8 313e 296b 9abc bf9b cfbc 026b 443e
00000350: f818 793c 2e4a 28be 84f5 c6bd 2bb7 a33d
00000360: 8e0f 6dbe 01ed fa3d e454 953d 6d7a 47be
00000370: a0e1 a0be 262f 7ebe 4adb 003d 5136 84be
00000380: c94f e03d 9902 0c3e a79d 303d 2f29 673d
00000390: 2bd4 f33d 275b 803d cc47 83be 495b 03bc
000003a0: 74d7 71bd 0162 913d c6bc 8dbe c106 763d
000003b0: 70c7 993d d71f 35be f680 bd3d d51e b43d
000003c0: c632 293e d748 e53d 1778 36be c86d 30be
000003d0: 7f47 43be 6b78 a6bd 25ae a4be ae12 87be
000003e0: 62f0 fa3d 8959 2b3d fbcc a4be cffa 153e
000003f0: 7c8b 4b3e 8931 c2be b2e0 eb3d 3949 a0be

output.bias f4 [10]
-0.16859673 -0.083351806 0.0062560407 -0.04957005 0.108869046 -0.07619723 -0.11555896 -0.10934871
-0.15498361 -0.027077397
00000000: 9fa4 2cbe 5ab4 aabd 79ff cc3b f709 4bbd
00000010: bcf6 de3d 4b0d 9cbd 2daa ecbd 37f2 dfbd
00000020: 06b4 1ebe 6bd1 ddbc
